{"format": "layers-model", "generatedBy": "keras v2.12.0", "convertedBy": "TensorFlow.js Converter v3.18.0", "modelTopology": {"keras_version": "2.12.0", "backend": "tensorflow", "model_config": {"class_name": "Functional", "config": {"name": "emnist_rescnn", "trainable": true, "layers": [{"class_name": "InputLayer", "config": {"batch_shape": [null, 28, 28, 1], "dtype": "float32", "sparse": false, "ragged": false, "name": "input_layer"}, "name": "input_layer", "inbound_nodes": []}, {"class_name": "Conv2D", "config": {"name": "conv2d", "trainable": true, "dtype": {"module": "keras", "class_name": "DTypePolicy", "config": {"name": "mixed_float16"}, "registered_name": null}, "filters": 64, "kernel_size": [3, 3], "strides": [1, 1], "padding": "same", "data_format": "channels_last", "dilation_rate": [1, 1], "groups": 1, "activation": "linear", "use_bias": false, "kernel_initializer": {"module": "keras.initializers", "class_name": "GlorotUniform", "config": {"seed": null}, "registered_name": null}, "bias_initializer": {"module": "keras.initializers", "class_name": "Zeros", "config": {}, "registered_name": null}, "kernel_regularizer": null, "bias_regularizer": null, "activity_regularizer": null, "kernel_constraint": null, "bias_constraint": null}, "name": "conv2d", "inbound_nodes": [{"args": [{"class_name": "__keras_tensor__", "config": {"shape": [null, 28, 28, 1], "dtype": "float32", "keras_history": ["input_layer", 0, 0]}}], "kwargs": {}}]}, {"class_name": "BatchNormalization", "config": {"name": "batch_normalization", "trainable": true, "dtype": {"module": "keras", "class_name": "DTypePolicy", "config": {"name": "mixed_float16"}, "registered_name": null}, "axis": -1, "momentum": 0.99, "epsilon": 0.001, "center": true, "scale": true, "beta_initializer": {"module": "keras.initializers", "class_name": "Zeros", "config": {}, "registered_name": null}, "gamma_initializer": {"module": "keras.initializers", "class_name": "Ones", "config": {}, "registered_name": null}, "moving_mean_initializer": {"module": "keras.initializers", "class_name": "Zeros", "config": {}, "registered_name": null}, "moving_variance_initializer": {"module": "keras.initializers", "class_name": "Ones", "config": {}, "registered_name": null}, "beta_regularizer": null, "gamma_regularizer": null, "beta_constraint": null, "gamma_constraint": null, "synchronized": false}, "name": "batch_normalization", "inbound_nodes": [{"args": [{"class_name": "__keras_tensor__", "config": {"shape": [null, 28, 28, 64], "dtype": "float16", "keras_history": ["conv2d", 0, 0]}}], "kwargs": {"mask": null}}]}, {"class_name": "Activation", "config": {"name": "activation", "trainable": true, "dtype": {"module": "keras", "class_name": "DTypePolicy", "config": {"name": "mixed_float16"}, "registered_name": null}, "activation": "relu"}, "name": "activation", "inbound_nodes": [{"args": [{"class_name": "__keras_tensor__", "config": {"shape": [null, 28, 28, 64], "dtype": "float16", "keras_history": ["batch_normalization", 0, 0]}}], "kwargs": {}}]}, {"class_name": "Conv2D", "config": {"name": "conv2d_1", "trainable": true, "dtype": {"module": "keras", "class_name": "DTypePolicy", "config": {"name": "mixed_float16"}, "registered_name": null}, "filters": 64, "kernel_size": [3, 3], "strides": [1, 1], "padding": "same", "data_format": "channels_last", "dilation_rate": [1, 1], "groups": 1, "activation": "linear", "use_bias": false, "kernel_initializer": {"module": "keras.initializers", "class_name": "GlorotUniform", "config": {"seed": null}, "registered_name": null}, "bias_initializer": {"module": "keras.initializers", "class_name": "Zeros", "config": {}, "registered_name": null}, "kernel_regularizer": null, "bias_regularizer": null, "activity_regularizer": null, "kernel_constraint": null, "bias_constraint": null}, "name": "conv2d_1", "inbound_nodes": [{"args": [{"class_name": "__keras_tensor__", "config": {"shape": [null, 28, 28, 64], "dtype": "float16", "keras_history": ["activation", 0, 0]}}], "kwargs": {}}]}, {"class_name": "BatchNormalization", "config": {"name": "batch_normalization_1", "trainable": true, "dtype": {"module": "keras", "class_name": "DTypePolicy", "config": {"name": "mixed_float16"}, "registered_name": null}, "axis": -1, "momentum": 0.99, "epsilon": 0.001, "center": true, "scale": true, "beta_initializer": {"module": "keras.initializers", "class_name": "Zeros", "config": {}, "registered_name": null}, "gamma_initializer": {"module": "keras.initializers", "class_name": "Ones", "config": {}, "registered_name": null}, "moving_mean_initializer": {"module": "keras.initializers", "class_name": "Zeros", "config": {}, "registered_name": null}, "moving_variance_initializer": {"module": "keras.initializers", "class_name": "Ones", "config": {}, "registered_name": null}, "beta_regularizer": null, "gamma_regularizer": null, "beta_constraint": null, "gamma_constraint": null, "synchronized": false}, "name": "batch_normalization_1", "inbound_nodes": [{"args": [{"class_name": "__keras_tensor__", "config": {"shape": [null, 28, 28, 64], "dtype": "float16", "keras_history": ["conv2d_1", 0, 0]}}], "kwargs": {"mask": null}}]}, {"class_name": "Activation", "config": {"name": "activation_1", "trainable": true, "dtype": {"module": "keras", "class_name": "DTypePolicy", "config": {"name": "mixed_float16"}, "registered_name": null}, "activation": "relu"}, "name": "activation_1", "inbound_nodes": [{"args": [{"class_name": "__keras_tensor__", "config": {"shape": [null, 28, 28, 64], "dtype": "float16", "keras_history": ["batch_normalization_1", 0, 0]}}], "kwargs": {}}]}, {"class_name": "MaxPooling2D", "config": {"name": "max_pooling2d", "trainable": true, "dtype": {"module": "keras", "class_name": "DTypePolicy", "config": {"name": "mixed_float16"}, "registered_name": null}, "pool_size": [2, 2], "padding": "valid", "strides": [2, 2], "data_format": "channels_last"}, "name": "max_pooling2d", "inbound_nodes": [{"args": [{"class_name": "__keras_tensor__", "config": {"shape": [null, 28, 28, 64], "dtype": "float16", "keras_history": ["activation_1", 0, 0]}}], "kwargs": {}}]}, {"class_name": "Conv2D", "config": {"name": "conv2d_2", "trainable": true, "dtype": {"module": "keras", "class_name": "DTypePolicy", "config": {"name": "mixed_float16"}, "registered_name": null}, "filters": 96, "kernel_size": [3, 3], "strides": [1, 1], "padding": "same", "data_format": "channels_last", "dilation_rate": [1, 1], "groups": 1, "activation": "linear", "use_bias": false, "kernel_initializer": {"module": "keras.initializers", "class_name": "GlorotUniform", "config": {"seed": null}, "registered_name": null}, "bias_initializer": {"module": "keras.initializers", "class_name": "Zeros", "config": {}, "registered_name": null}, "kernel_regularizer": null, "bias_regularizer": null, "activity_regularizer": null, "kernel_constraint": null, "bias_constraint": null}, "name": "conv2d_2", "inbound_nodes": [{"args": [{"class_name": "__keras_tensor__", "config": {"shape": [null, 14, 14, 64], "dtype": "float16", "keras_history": ["max_pooling2d", 0, 0]}}], "kwargs": {}}]}, {"class_name": "BatchNormalization", "config": {"name": "batch_normalization_2", "trainable": true, "dtype": {"module": "keras", "class_name": "DTypePolicy", "config": {"name": "mixed_float16"}, "registered_name": null}, "axis": -1, "momentum": 0.99, "epsilon": 0.001, "center": true, "scale": true, "beta_initializer": {"module": "keras.initializers", "class_name": "Zeros", "config": {}, "registered_name": null}, "gamma_initializer": {"module": "keras.initializers", "class_name": "Ones", "config": {}, "registered_name": null}, "moving_mean_initializer": {"module": "keras.initializers", "class_name": "Zeros", "config": {}, "registered_name": null}, "moving_variance_initializer": {"module": "keras.initializers", "class_name": "Ones", "config": {}, "registered_name": null}, "beta_regularizer": null, "gamma_regularizer": null, "beta_constraint": null, "gamma_constraint": null, "synchronized": false}, "name": "batch_normalization_2", "inbound_nodes": [{"args": [{"class_name": "__keras_tensor__", "config": {"shape": [null, 14, 14, 96], "dtype": "float16", "keras_history": ["conv2d_2", 0, 0]}}], "kwargs": {"mask": null}}]}, {"class_name": "Activation", "config": {"name": "activation_2", "trainable": true, "dtype": {"module": "keras", "class_name": "DTypePolicy", "config": {"name": "mixed_float16"}, "registered_name": null}, "activation": "relu"}, "name": "activation_2", "inbound_nodes": [{"args": [{"class_name": "__keras_tensor__", "config": {"shape": [null, 14, 14, 96], "dtype": "float16", "keras_history": ["batch_normalization_2", 0, 0]}}], "kwargs": {}}]}, {"class_name": "Conv2D", "config": {"name": "conv2d_3", "trainable": true, "dtype": {"module": "keras", "class_name": "DTypePolicy", "config": {"name": "mixed_float16"}, "registered_name": null}, "filters": 96, "kernel_size": [3, 3], "strides": [1, 1], "padding": "same", "data_format": "channels_last", "dilation_rate": [1, 1], "groups": 1, "activation": "linear", "use_bias": false, "kernel_initializer": {"module": "keras.initializers", "class_name": "GlorotUniform", "config": {"seed": null}, "registered_name": null}, "bias_initializer": {"module": "keras.initializers", "class_name": "Zeros", "config": {}, "registered_name": null}, "kernel_regularizer": null, "bias_regularizer": null, "activity_regularizer": null, "kernel_constraint": null, "bias_constraint": null}, "name": "conv2d_3", "inbound_nodes": [{"args": [{"class_name": "__keras_tensor__", "config": {"shape": [null, 14, 14, 96], "dtype": "float16", "keras_history": ["activation_2", 0, 0]}}], "kwargs": {}}]}, {"class_name": "Conv2D", "config": {"name": "conv2d_4", "trainable": true, "dtype": {"module": "keras", "class_name": "DTypePolicy", "config": {"name": "mixed_float16"}, "registered_name": null}, "filters": 96, "kernel_size": [1, 1], "strides": [1, 1], "padding": "same", "data_format": "channels_last", "dilation_rate": [1, 1], "groups": 1, "activation": "linear", "use_bias": false, "kernel_initializer": {"module": "keras.initializers", "class_name": "GlorotUniform", "config": {"seed": null}, "registered_name": null}, "bias_initializer": {"module": "keras.initializers", "class_name": "Zeros", "config": {}, "registered_name": null}, "kernel_regularizer": null, "bias_regularizer": null, "activity_regularizer": null, "kernel_constraint": null, "bias_constraint": null}, "name": "conv2d_4", "inbound_nodes": [{"args": [{"class_name": "__keras_tensor__", "config": {"shape": [null, 14, 14, 64], "dtype": "float16", "keras_history": ["max_pooling2d", 0, 0]}}], "kwargs": {}}]}, {"class_name": "BatchNormalization", "config": {"name": "batch_normalization_3", "trainable": true, "dtype": {"module": "keras", "class_name": "DTypePolicy", "config": {"name": "mixed_float16"}, "registered_name": null}, "axis": -1, "momentum": 0.99, "epsilon": 0.001, "center": true, "scale": true, "beta_initializer": {"module": "keras.initializers", "class_name": "Zeros", "config": {}, "registered_name": null}, "gamma_initializer": {"module": "keras.initializers", "class_name": "Ones", "config": {}, "registered_name": null}, "moving_mean_initializer": {"module": "keras.initializers", "class_name": "Zeros", "config": {}, "registered_name": null}, "moving_variance_initializer": {"module": "keras.initializers", "class_name": "Ones", "config": {}, "registered_name": null}, "beta_regularizer": null, "gamma_regularizer": null, "beta_constraint": null, "gamma_constraint": null, "synchronized": false}, "name": "batch_normalization_3", "inbound_nodes": [{"args": [{"class_name": "__keras_tensor__", "config": {"shape": [null, 14, 14, 96], "dtype": "float16", "keras_history": ["conv2d_3", 0, 0]}}], "kwargs": {"mask": null}}]}, {"class_name": "BatchNormalization", "config": {"name": "batch_normalization_4", "trainable": true, "dtype": {"module": "keras", "class_name": "DTypePolicy", "config": {"name": "mixed_float16"}, "registered_name": null}, "axis": -1, "momentum": 0.99, "epsilon": 0.001, "center": true, "scale": true, "beta_initializer": {"module": "keras.initializers", "class_name": "Zeros", "config": {}, "registered_name": null}, "gamma_initializer": {"module": "keras.initializers", "class_name": "Ones", "config": {}, "registered_name": null}, "moving_mean_initializer": {"module": "keras.initializers", "class_name": "Zeros", "config": {}, "registered_name": null}, "moving_variance_initializer": {"module": "keras.initializers", "class_name": "Ones", "config": {}, "registered_name": null}, "beta_regularizer": null, "gamma_regularizer": null, "beta_constraint": null, "gamma_constraint": null, "synchronized": false}, "name": "batch_normalization_4", "inbound_nodes": [{"args": [{"class_name": "__keras_tensor__", "config": {"shape": [null, 14, 14, 96], "dtype": "float16", "keras_history": ["conv2d_4", 0, 0]}}], "kwargs": {"mask": null}}]}, {"class_name": "Add", "config": {"name": "add", "trainable": true, "dtype": {"module": "keras", "class_name": "DTypePolicy", "config": {"name": "mixed_float16"}, "registered_name": null}}, "name": "add", "inbound_nodes": [{"args": [[{"class_name": "__keras_tensor__", "config": {"shape": [null, 14, 14, 96], "dtype": "float16", "keras_history": ["batch_normalization_3", 0, 0]}}, {"class_name": "__keras_tensor__", "config": {"shape": [null, 14, 14, 96], "dtype": "float16", "keras_history": ["batch_normalization_4", 0, 0]}}]], "kwargs": {}}]}, {"class_name": "Activation", "config": {"name": "activation_3", "trainable": true, "dtype": {"module": "keras", "class_name": "DTypePolicy", "config": {"name": "mixed_float16"}, "registered_name": null}, "activation": "relu"}, "name": "activation_3", "inbound_nodes": [{"args": [{"class_name": "__keras_tensor__", "config": {"shape": [null, 14, 14, 96], "dtype": "float16", "keras_history": ["add", 0, 0]}}], "kwargs": {}}]}, {"class_name": "Conv2D", "config": {"name": "conv2d_5", "trainable": true, "dtype": {"module": "keras", "class_name": "DTypePolicy", "config": {"name": "mixed_float16"}, "registered_name": null}, "filters": 96, "kernel_size": [3, 3], "strides": [1, 1], "padding": "same", "data_format": "channels_last", "dilation_rate": [1, 1], "groups": 1, "activation": "linear", "use_bias": false, "kernel_initializer": {"module": "keras.initializers", "class_name": "GlorotUniform", "config": {"seed": null}, "registered_name": null}, "bias_initializer": {"module": "keras.initializers", "class_name": "Zeros", "config": {}, "registered_name": null}, "kernel_regularizer": null, "bias_regularizer": null, "activity_regularizer": null, "kernel_constraint": null, "bias_constraint": null}, "name": "conv2d_5", "inbound_nodes": [{"args": [{"class_name": "__keras_tensor__", "config": {"shape": [null, 14, 14, 96], "dtype": "float16", "keras_history": ["activation_3", 0, 0]}}], "kwargs": {}}]}, {"class_name": "BatchNormalization", "config": {"name": "batch_normalization_5", "trainable": true, "dtype": {"module": "keras", "class_name": "DTypePolicy", "config": {"name": "mixed_float16"}, "registered_name": null}, "axis": -1, "momentum": 0.99, "epsilon": 0.001, "center": true, "scale": true, "beta_initializer": {"module": "keras.initializers", "class_name": "Zeros", "config": {}, "registered_name": null}, "gamma_initializer": {"module": "keras.initializers", "class_name": "Ones", "config": {}, "registered_name": null}, "moving_mean_initializer": {"module": "keras.initializers", "class_name": "Zeros", "config": {}, "registered_name": null}, "moving_variance_initializer": {"module": "keras.initializers", "class_name": "Ones", "config": {}, "registered_name": null}, "beta_regularizer": null, "gamma_regularizer": null, "beta_constraint": null, "gamma_constraint": null, "synchronized": false}, "name": "batch_normalization_5", "inbound_nodes": [{"args": [{"class_name": "__keras_tensor__", "config": {"shape": [null, 14, 14, 96], "dtype": "float16", "keras_history": ["conv2d_5", 0, 0]}}], "kwargs": {"mask": null}}]}, {"class_name": "Activation", "config": {"name": "activation_4", "trainable": true, "dtype": {"module": "keras", "class_name": "DTypePolicy", "config": {"name": "mixed_float16"}, "registered_name": null}, "activation": "relu"}, "name": "activation_4", "inbound_nodes": [{"args": [{"class_name": "__keras_tensor__", "config": {"shape": [null, 14, 14, 96], "dtype": "float16", "keras_history": ["batch_normalization_5", 0, 0]}}], "kwargs": {}}]}, {"class_name": "Conv2D", "config": {"name": "conv2d_6", "trainable": true, "dtype": {"module": "keras", "class_name": "DTypePolicy", "config": {"name": "mixed_float16"}, "registered_name": null}, "filters": 96, "kernel_size": [3, 3], "strides": [1, 1], "padding": "same", "data_format": "channels_last", "dilation_rate": [1, 1], "groups": 1, "activation": "linear", "use_bias": false, "kernel_initializer": {"module": "keras.initializers", "class_name": "GlorotUniform", "config": {"seed": null}, "registered_name": null}, "bias_initializer": {"module": "keras.initializers", "class_name": "Zeros", "config": {}, "registered_name": null}, "kernel_regularizer": null, "bias_regularizer": null, "activity_regularizer": null, "kernel_constraint": null, "bias_constraint": null}, "name": "conv2d_6", "inbound_nodes": [{"args": [{"class_name": "__keras_tensor__", "config": {"shape": [null, 14, 14, 96], "dtype": "float16", "keras_history": ["activation_4", 0, 0]}}], "kwargs": {}}]}, {"class_name": "BatchNormalization", "config": {"name": "batch_normalization_6", "trainable": true, "dtype": {"module": "keras", "class_name": "DTypePolicy", "config": {"name": "mixed_float16"}, "registered_name": null}, "axis": -1, "momentum": 0.99, "epsilon": 0.001, "center": true, "scale": true, "beta_initializer": {"module": "keras.initializers", "class_name": "Zeros", "config": {}, "registered_name": null}, "gamma_initializer": {"module": "keras.initializers", "class_name": "Ones", "config": {}, "registered_name": null}, "moving_mean_initializer": {"module": "keras.initializers", "class_name": "Zeros", "config": {}, "registered_name": null}, "moving_variance_initializer": {"module": "keras.initializers", "class_name": "Ones", "config": {}, "registered_name": null}, "beta_regularizer": null, "gamma_regularizer": null, "beta_constraint": null, "gamma_constraint": null, "synchronized": false}, "name": "batch_normalization_6", "inbound_nodes": [{"args": [{"class_name": "__keras_tensor__", "config": {"shape": [null, 14, 14, 96], "dtype": "float16", "keras_history": ["conv2d_6", 0, 0]}}], "kwargs": {"mask": null}}]}, {"class_name": "Add", "config": {"name": "add_1", "trainable": true, "dtype": {"module": "keras", "class_name": "DTypePolicy", "config": {"name": "mixed_float16"}, "registered_name": null}}, "name": "add_1", "inbound_nodes": [{"args": [[{"class_name": "__keras_tensor__", "config": {"shape": [null, 14, 14, 96], "dtype": "float16", "keras_history": ["batch_normalization_6", 0, 0]}}, {"class_name": "__keras_tensor__", "config": {"shape": [null, 14, 14, 96], "dtype": "float16", "keras_history": ["activation_3", 0, 0]}}]], "kwargs": {}}]}, {"class_name": "Activation", "config": {"name": "activation_5", "trainable": true, "dtype": {"module": "keras", "class_name": "DTypePolicy", "config": {"name": "mixed_float16"}, "registered_name": null}, "activation": "relu"}, "name": "activation_5", "inbound_nodes": [{"args": [{"class_name": "__keras_tensor__", "config": {"shape": [null, 14, 14, 96], "dtype": "float16", "keras_history": ["add_1", 0, 0]}}], "kwargs": {}}]}, {"class_name": "SpatialDropout2D", "config": {"rate": 0.05, "seed": null, "name": "spatial_dropout2d", "dtype": "float32", "data_format": "channels_last"}, "name": "spatial_dropout2d", "inbound_nodes": [{"args": [{"class_name": "__keras_tensor__", "config": {"shape": [null, 14, 14, 96], "dtype": "float16", "keras_history": ["activation_5", 0, 0]}}], "kwargs": {"training": false}}]}, {"class_name": "Conv2D", "config": {"name": "conv2d_7", "trainable": true, "dtype": {"module": "keras", "class_name": "DTypePolicy", "config": {"name": "mixed_float16"}, "registered_name": null}, "filters": 128, "kernel_size": [3, 3], "strides": [2, 2], "padding": "same", "data_format": "channels_last", "dilation_rate": [1, 1], "groups": 1, "activation": "linear", "use_bias": false, "kernel_initializer": {"module": "keras.initializers", "class_name": "GlorotUniform", "config": {"seed": null}, "registered_name": null}, "bias_initializer": {"module": "keras.initializers", "class_name": "Zeros", "config": {}, "registered_name": null}, "kernel_regularizer": null, "bias_regularizer": null, "activity_regularizer": null, "kernel_constraint": null, "bias_constraint": null}, "name": "conv2d_7", "inbound_nodes": [{"args": [{"class_name": "__keras_tensor__", "config": {"shape": [null, 14, 14, 96], "dtype": "float32", "keras_history": ["spatial_dropout2d", 0, 0]}}], "kwargs": {}}]}, {"class_name": "BatchNormalization", "config": {"name": "batch_normalization_7", "trainable": true, "dtype": {"module": "keras", "class_name": "DTypePolicy", "config": {"name": "mixed_float16"}, "registered_name": null}, "axis": -1, "momentum": 0.99, "epsilon": 0.001, "center": true, "scale": true, "beta_initializer": {"module": "keras.initializers", "class_name": "Zeros", "config": {}, "registered_name": null}, "gamma_initializer": {"module": "keras.initializers", "class_name": "Ones", "config": {}, "registered_name": null}, "moving_mean_initializer": {"module": "keras.initializers", "class_name": "Zeros", "config": {}, "registered_name": null}, "moving_variance_initializer": {"module": "keras.initializers", "class_name": "Ones", "config": {}, "registered_name": null}, "beta_regularizer": null, "gamma_regularizer": null, "beta_constraint": null, "gamma_constraint": null, "synchronized": false}, "name": "batch_normalization_7", "inbound_nodes": [{"args": [{"class_name": "__keras_tensor__", "config": {"shape": [null, 7, 7, 128], "dtype": "float16", "keras_history": ["conv2d_7", 0, 0]}}], "kwargs": {"mask": null}}]}, {"class_name": "Activation", "config": {"name": "activation_6", "trainable": true, "dtype": {"module": "keras", "class_name": "DTypePolicy", "config": {"name": "mixed_float16"}, "registered_name": null}, "activation": "relu"}, "name": "activation_6", "inbound_nodes": [{"args": [{"class_name": "__keras_tensor__", "config": {"shape": [null, 7, 7, 128], "dtype": "float16", "keras_history": ["batch_normalization_7", 0, 0]}}], "kwargs": {}}]}, {"class_name": "Conv2D", "config": {"name": "conv2d_8", "trainable": true, "dtype": {"module": "keras", "class_name": "DTypePolicy", "config": {"name": "mixed_float16"}, "registered_name": null}, "filters": 128, "kernel_size": [3, 3], "strides": [1, 1], "padding": "same", "data_format": "channels_last", "dilation_rate": [1, 1], "groups": 1, "activation": "linear", "use_bias": false, "kernel_initializer": {"module": "keras.initializers", "class_name": "GlorotUniform", "config": {"seed": null}, "registered_name": null}, "bias_initializer": {"module": "keras.initializers", "class_name": "Zeros", "config": {}, "registered_name": null}, "kernel_regularizer": null, "bias_regularizer": null, "activity_regularizer": null, "kernel_constraint": null, "bias_constraint": null}, "name": "conv2d_8", "inbound_nodes": [{"args": [{"class_name": "__keras_tensor__", "config": {"shape": [null, 7, 7, 128], "dtype": "float16", "keras_history": ["activation_6", 0, 0]}}], "kwargs": {}}]}, {"class_name": "Conv2D", "config": {"name": "conv2d_9", "trainable": true, "dtype": {"module": "keras", "class_name": "DTypePolicy", "config": {"name": "mixed_float16"}, "registered_name": null}, "filters": 128, "kernel_size": [1, 1], "strides": [2, 2], "padding": "same", "data_format": "channels_last", "dilation_rate": [1, 1], "groups": 1, "activation": "linear", "use_bias": false, "kernel_initializer": {"module": "keras.initializers", "class_name": "GlorotUniform", "config": {"seed": null}, "registered_name": null}, "bias_initializer": {"module": "keras.initializers", "class_name": "Zeros", "config": {}, "registered_name": null}, "kernel_regularizer": null, "bias_regularizer": null, "activity_regularizer": null, "kernel_constraint": null, "bias_constraint": null}, "name": "conv2d_9", "inbound_nodes": [{"args": [{"class_name": "__keras_tensor__", "config": {"shape": [null, 14, 14, 96], "dtype": "float32", "keras_history": ["spatial_dropout2d", 0, 0]}}], "kwargs": {}}]}, {"class_name": "BatchNormalization", "config": {"name": "batch_normalization_8", "trainable": true, "dtype": {"module": "keras", "class_name": "DTypePolicy", "config": {"name": "mixed_float16"}, "registered_name": null}, "axis": -1, "momentum": 0.99, "epsilon": 0.001, "center": true, "scale": true, "beta_initializer": {"module": "keras.initializers", "class_name": "Zeros", "config": {}, "registered_name": null}, "gamma_initializer": {"module": "keras.initializers", "class_name": "Ones", "config": {}, "registered_name": null}, "moving_mean_initializer": {"module": "keras.initializers", "class_name": "Zeros", "config": {}, "registered_name": null}, "moving_variance_initializer": {"module": "keras.initializers", "class_name": "Ones", "config": {}, "registered_name": null}, "beta_regularizer": null, "gamma_regularizer": null, "beta_constraint": null, "gamma_constraint": null, "synchronized": false}, "name": "batch_normalization_8", "inbound_nodes": [{"args": [{"class_name": "__keras_tensor__", "config": {"shape": [null, 7, 7, 128], "dtype": "float16", "keras_history": ["conv2d_8", 0, 0]}}], "kwargs": {"mask": null}}]}, {"class_name": "BatchNormalization", "config": {"name": "batch_normalization_9", "trainable": true, "dtype": {"module": "keras", "class_name": "DTypePolicy", "config": {"name": "mixed_float16"}, "registered_name": null}, "axis": -1, "momentum": 0.99, "epsilon": 0.001, "center": true, "scale": true, "beta_initializer": {"module": "keras.initializers", "class_name": "Zeros", "config": {}, "registered_name": null}, "gamma_initializer": {"module": "keras.initializers", "class_name": "Ones", "config": {}, "registered_name": null}, "moving_mean_initializer": {"module": "keras.initializers", "class_name": "Zeros", "config": {}, "registered_name": null}, "moving_variance_initializer": {"module": "keras.initializers", "class_name": "Ones", "config": {}, "registered_name": null}, "beta_regularizer": null, "gamma_regularizer": null, "beta_constraint": null, "gamma_constraint": null, "synchronized": false}, "name": "batch_normalization_9", "inbound_nodes": [{"args": [{"class_name": "__keras_tensor__", "config": {"shape": [null, 7, 7, 128], "dtype": "float16", "keras_history": ["conv2d_9", 0, 0]}}], "kwargs": {"mask": null}}]}, {"class_name": "Add", "config": {"name": "add_2", "trainable": true, "dtype": {"module": "keras", "class_name": "DTypePolicy", "config": {"name": "mixed_float16"}, "registered_name": null}}, "name": "add_2", "inbound_nodes": [{"args": [[{"class_name": "__keras_tensor__", "config": {"shape": [null, 7, 7, 128], "dtype": "float16", "keras_history": ["batch_normalization_8", 0, 0]}}, {"class_name": "__keras_tensor__", "config": {"shape": [null, 7, 7, 128], "dtype": "float16", "keras_history": ["batch_normalization_9", 0, 0]}}]], "kwargs": {}}]}, {"class_name": "Activation", "config": {"name": "activation_7", "trainable": true, "dtype": {"module": "keras", "class_name": "DTypePolicy", "config": {"name": "mixed_float16"}, "registered_name": null}, "activation": "relu"}, "name": "activation_7", "inbound_nodes": [{"args": [{"class_name": "__keras_tensor__", "config": {"shape": [null, 7, 7, 128], "dtype": "float16", "keras_history": ["add_2", 0, 0]}}], "kwargs": {}}]}, {"class_name": "SpatialDropout2D", "config": {"rate": 0.1, "seed": null, "name": "spatial_dropout2d_1", "dtype": "float32", "data_format": "channels_last"}, "name": "spatial_dropout2d_1", "inbound_nodes": [{"args": [{"class_name": "__keras_tensor__", "config": {"shape": [null, 7, 7, 128], "dtype": "float16", "keras_history": ["activation_7", 0, 0]}}], "kwargs": {"training": false}}]}, {"class_name": "Conv2D", "config": {"name": "conv2d_10", "trainable": true, "dtype": {"module": "keras", "class_name": "DTypePolicy", "config": {"name": "mixed_float16"}, "registered_name": null}, "filters": 128, "kernel_size": [3, 3], "strides": [1, 1], "padding": "same", "data_format": "channels_last", "dilation_rate": [1, 1], "groups": 1, "activation": "linear", "use_bias": false, "kernel_initializer": {"module": "keras.initializers", "class_name": "GlorotUniform", "config": {"seed": null}, "registered_name": null}, "bias_initializer": {"module": "keras.initializers", "class_name": "Zeros", "config": {}, "registered_name": null}, "kernel_regularizer": null, "bias_regularizer": null, "activity_regularizer": null, "kernel_constraint": null, "bias_constraint": null}, "name": "conv2d_10", "inbound_nodes": [{"args": [{"class_name": "__keras_tensor__", "config": {"shape": [null, 7, 7, 128], "dtype": "float32", "keras_history": ["spatial_dropout2d_1", 0, 0]}}], "kwargs": {}}]}, {"class_name": "BatchNormalization", "config": {"name": "batch_normalization_10", "trainable": true, "dtype": {"module": "keras", "class_name": "DTypePolicy", "config": {"name": "mixed_float16"}, "registered_name": null}, "axis": -1, "momentum": 0.99, "epsilon": 0.001, "center": true, "scale": true, "beta_initializer": {"module": "keras.initializers", "class_name": "Zeros", "config": {}, "registered_name": null}, "gamma_initializer": {"module": "keras.initializers", "class_name": "Ones", "config": {}, "registered_name": null}, "moving_mean_initializer": {"module": "keras.initializers", "class_name": "Zeros", "config": {}, "registered_name": null}, "moving_variance_initializer": {"module": "keras.initializers", "class_name": "Ones", "config": {}, "registered_name": null}, "beta_regularizer": null, "gamma_regularizer": null, "beta_constraint": null, "gamma_constraint": null, "synchronized": false}, "name": "batch_normalization_10", "inbound_nodes": [{"args": [{"class_name": "__keras_tensor__", "config": {"shape": [null, 7, 7, 128], "dtype": "float16", "keras_history": ["conv2d_10", 0, 0]}}], "kwargs": {"mask": null}}]}, {"class_name": "Activation", "config": {"name": "activation_8", "trainable": true, "dtype": {"module": "keras", "class_name": "DTypePolicy", "config": {"name": "mixed_float16"}, "registered_name": null}, "activation": "relu"}, "name": "activation_8", "inbound_nodes": [{"args": [{"class_name": "__keras_tensor__", "config": {"shape": [null, 7, 7, 128], "dtype": "float16", "keras_history": ["batch_normalization_10", 0, 0]}}], "kwargs": {}}]}, {"class_name": "Conv2D", "config": {"name": "conv2d_11", "trainable": true, "dtype": {"module": "keras", "class_name": "DTypePolicy", "config": {"name": "mixed_float16"}, "registered_name": null}, "filters": 128, "kernel_size": [3, 3], "strides": [1, 1], "padding": "same", "data_format": "channels_last", "dilation_rate": [1, 1], "groups": 1, "activation": "linear", "use_bias": false, "kernel_initializer": {"module": "keras.initializers", "class_name": "GlorotUniform", "config": {"seed": null}, "registered_name": null}, "bias_initializer": {"module": "keras.initializers", "class_name": "Zeros", "config": {}, "registered_name": null}, "kernel_regularizer": null, "bias_regularizer": null, "activity_regularizer": null, "kernel_constraint": null, "bias_constraint": null}, "name": "conv2d_11", "inbound_nodes": [{"args": [{"class_name": "__keras_tensor__", "config": {"shape": [null, 7, 7, 128], "dtype": "float16", "keras_history": ["activation_8", 0, 0]}}], "kwargs": {}}]}, {"class_name": "BatchNormalization", "config": {"name": "batch_normalization_11", "trainable": true, "dtype": {"module": "keras", "class_name": "DTypePolicy", "config": {"name": "mixed_float16"}, "registered_name": null}, "axis": -1, "momentum": 0.99, "epsilon": 0.001, "center": true, "scale": true, "beta_initializer": {"module": "keras.initializers", "class_name": "Zeros", "config": {}, "registered_name": null}, "gamma_initializer": {"module": "keras.initializers", "class_name": "Ones", "config": {}, "registered_name": null}, "moving_mean_initializer": {"module": "keras.initializers", "class_name": "Zeros", "config": {}, "registered_name": null}, "moving_variance_initializer": {"module": "keras.initializers", "class_name": "Ones", "config": {}, "registered_name": null}, "beta_regularizer": null, "gamma_regularizer": null, "beta_constraint": null, "gamma_constraint": null, "synchronized": false}, "name": "batch_normalization_11", "inbound_nodes": [{"args": [{"class_name": "__keras_tensor__", "config": {"shape": [null, 7, 7, 128], "dtype": "float16", "keras_history": ["conv2d_11", 0, 0]}}], "kwargs": {"mask": null}}]}, {"class_name": "Add", "config": {"name": "add_3", "trainable": true, "dtype": {"module": "keras", "class_name": "DTypePolicy", "config": {"name": "mixed_float16"}, "registered_name": null}}, "name": "add_3", "inbound_nodes": [{"args": [[{"class_name": "__keras_tensor__", "config": {"shape": [null, 7, 7, 128], "dtype": "float16", "keras_history": ["batch_normalization_11", 0, 0]}}, {"class_name": "__keras_tensor__", "config": {"shape": [null, 7, 7, 128], "dtype": "float32", "keras_history": ["spatial_dropout2d_1", 0, 0]}}]], "kwargs": {}}]}, {"class_name": "Activation", "config": {"name": "activation_9", "trainable": true, "dtype": {"module": "keras", "class_name": "DTypePolicy", "config": {"name": "mixed_float16"}, "registered_name": null}, "activation": "relu"}, "name": "activation_9", "inbound_nodes": [{"args": [{"class_name": "__keras_tensor__", "config": {"shape": [null, 7, 7, 128], "dtype": "float16", "keras_history": ["add_3", 0, 0]}}], "kwargs": {}}]}, {"class_name": "Conv2D", "config": {"name": "conv2d_12", "trainable": true, "dtype": {"module": "keras", "class_name": "DTypePolicy", "config": {"name": "mixed_float16"}, "registered_name": null}, "filters": 160, "kernel_size": [3, 3], "strides": [2, 2], "padding": "same", "data_format": "channels_last", "dilation_rate": [1, 1], "groups": 1, "activation": "linear", "use_bias": false, "kernel_initializer": {"module": "keras.initializers", "class_name": "GlorotUniform", "config": {"seed": null}, "registered_name": null}, "bias_initializer": {"module": "keras.initializers", "class_name": "Zeros", "config": {}, "registered_name": null}, "kernel_regularizer": null, "bias_regularizer": null, "activity_regularizer": null, "kernel_constraint": null, "bias_constraint": null}, "name": "conv2d_12", "inbound_nodes": [{"args": [{"class_name": "__keras_tensor__", "config": {"shape": [null, 7, 7, 128], "dtype": "float16", "keras_history": ["activation_9", 0, 0]}}], "kwargs": {}}]}, {"class_name": "BatchNormalization", "config": {"name": "batch_normalization_12", "trainable": true, "dtype": {"module": "keras", "class_name": "DTypePolicy", "config": {"name": "mixed_float16"}, "registered_name": null}, "axis": -1, "momentum": 0.99, "epsilon": 0.001, "center": true, "scale": true, "beta_initializer": {"module": "keras.initializers", "class_name": "Zeros", "config": {}, "registered_name": null}, "gamma_initializer": {"module": "keras.initializers", "class_name": "Ones", "config": {}, "registered_name": null}, "moving_mean_initializer": {"module": "keras.initializers", "class_name": "Zeros", "config": {}, "registered_name": null}, "moving_variance_initializer": {"module": "keras.initializers", "class_name": "Ones", "config": {}, "registered_name": null}, "beta_regularizer": null, "gamma_regularizer": null, "beta_constraint": null, "gamma_constraint": null, "synchronized": false}, "name": "batch_normalization_12", "inbound_nodes": [{"args": [{"class_name": "__keras_tensor__", "config": {"shape": [null, 4, 4, 160], "dtype": "float16", "keras_history": ["conv2d_12", 0, 0]}}], "kwargs": {"mask": null}}]}, {"class_name": "Activation", "config": {"name": "activation_10", "trainable": true, "dtype": {"module": "keras", "class_name": "DTypePolicy", "config": {"name": "mixed_float16"}, "registered_name": null}, "activation": "relu"}, "name": "activation_10", "inbound_nodes": [{"args": [{"class_name": "__keras_tensor__", "config": {"shape": [null, 4, 4, 160], "dtype": "float16", "keras_history": ["batch_normalization_12", 0, 0]}}], "kwargs": {}}]}, {"class_name": "Conv2D", "config": {"name": "conv2d_13", "trainable": true, "dtype": {"module": "keras", "class_name": "DTypePolicy", "config": {"name": "mixed_float16"}, "registered_name": null}, "filters": 160, "kernel_size": [3, 3], "strides": [1, 1], "padding": "same", "data_format": "channels_last", "dilation_rate": [1, 1], "groups": 1, "activation": "linear", "use_bias": false, "kernel_initializer": {"module": "keras.initializers", "class_name": "GlorotUniform", "config": {"seed": null}, "registered_name": null}, "bias_initializer": {"module": "keras.initializers", "class_name": "Zeros", "config": {}, "registered_name": null}, "kernel_regularizer": null, "bias_regularizer": null, "activity_regularizer": null, "kernel_constraint": null, "bias_constraint": null}, "name": "conv2d_13", "inbound_nodes": [{"args": [{"class_name": "__keras_tensor__", "config": {"shape": [null, 4, 4, 160], "dtype": "float16", "keras_history": ["activation_10", 0, 0]}}], "kwargs": {}}]}, {"class_name": "Conv2D", "config": {"name": "conv2d_14", "trainable": true, "dtype": {"module": "keras", "class_name": "DTypePolicy", "config": {"name": "mixed_float16"}, "registered_name": null}, "filters": 160, "kernel_size": [1, 1], "strides": [2, 2], "padding": "same", "data_format": "channels_last", "dilation_rate": [1, 1], "groups": 1, "activation": "linear", "use_bias": false, "kernel_initializer": {"module": "keras.initializers", "class_name": "GlorotUniform", "config": {"seed": null}, "registered_name": null}, "bias_initializer": {"module": "keras.initializers", "class_name": "Zeros", "config": {}, "registered_name": null}, "kernel_regularizer": null, "bias_regularizer": null, "activity_regularizer": null, "kernel_constraint": null, "bias_constraint": null}, "name": "conv2d_14", "inbound_nodes": [{"args": [{"class_name": "__keras_tensor__", "config": {"shape": [null, 7, 7, 128], "dtype": "float16", "keras_history": ["activation_9", 0, 0]}}], "kwargs": {}}]}, {"class_name": "BatchNormalization", "config": {"name": "batch_normalization_13", "trainable": true, "dtype": {"module": "keras", "class_name": "DTypePolicy", "config": {"name": "mixed_float16"}, "registered_name": null}, "axis": -1, "momentum": 0.99, "epsilon": 0.001, "center": true, "scale": true, "beta_initializer": {"module": "keras.initializers", "class_name": "Zeros", "config": {}, "registered_name": null}, "gamma_initializer": {"module": "keras.initializers", "class_name": "Ones", "config": {}, "registered_name": null}, "moving_mean_initializer": {"module": "keras.initializers", "class_name": "Zeros", "config": {}, "registered_name": null}, "moving_variance_initializer": {"module": "keras.initializers", "class_name": "Ones", "config": {}, "registered_name": null}, "beta_regularizer": null, "gamma_regularizer": null, "beta_constraint": null, "gamma_constraint": null, "synchronized": false}, "name": "batch_normalization_13", "inbound_nodes": [{"args": [{"class_name": "__keras_tensor__", "config": {"shape": [null, 4, 4, 160], "dtype": "float16", "keras_history": ["conv2d_13", 0, 0]}}], "kwargs": {"mask": null}}]}, {"class_name": "BatchNormalization", "config": {"name": "batch_normalization_14", "trainable": true, "dtype": {"module": "keras", "class_name": "DTypePolicy", "config": {"name": "mixed_float16"}, "registered_name": null}, "axis": -1, "momentum": 0.99, "epsilon": 0.001, "center": true, "scale": true, "beta_initializer": {"module": "keras.initializers", "class_name": "Zeros", "config": {}, "registered_name": null}, "gamma_initializer": {"module": "keras.initializers", "class_name": "Ones", "config": {}, "registered_name": null}, "moving_mean_initializer": {"module": "keras.initializers", "class_name": "Zeros", "config": {}, "registered_name": null}, "moving_variance_initializer": {"module": "keras.initializers", "class_name": "Ones", "config": {}, "registered_name": null}, "beta_regularizer": null, "gamma_regularizer": null, "beta_constraint": null, "gamma_constraint": null, "synchronized": false}, "name": "batch_normalization_14", "inbound_nodes": [{"args": [{"class_name": "__keras_tensor__", "config": {"shape": [null, 4, 4, 160], "dtype": "float16", "keras_history": ["conv2d_14", 0, 0]}}], "kwargs": {"mask": null}}]}, {"class_name": "Add", "config": {"name": "add_4", "trainable": true, "dtype": {"module": "keras", "class_name": "DTypePolicy", "config": {"name": "mixed_float16"}, "registered_name": null}}, "name": "add_4", "inbound_nodes": [{"args": [[{"class_name": "__keras_tensor__", "config": {"shape": [null, 4, 4, 160], "dtype": "float16", "keras_history": ["batch_normalization_13", 0, 0]}}, {"class_name": "__keras_tensor__", "config": {"shape": [null, 4, 4, 160], "dtype": "float16", "keras_history": ["batch_normalization_14", 0, 0]}}]], "kwargs": {}}]}, {"class_name": "Activation", "config": {"name": "activation_11", "trainable": true, "dtype": {"module": "keras", "class_name": "DTypePolicy", "config": {"name": "mixed_float16"}, "registered_name": null}, "activation": "relu"}, "name": "activation_11", "inbound_nodes": [{"args": [{"class_name": "__keras_tensor__", "config": {"shape": [null, 4, 4, 160], "dtype": "float16", "keras_history": ["add_4", 0, 0]}}], "kwargs": {}}]}, {"class_name": "SpatialDropout2D", "config": {"rate": 0.15, "seed": null, "name": "spatial_dropout2d_2", "dtype": "float32", "data_format": "channels_last"}, "name": "spatial_dropout2d_2", "inbound_nodes": [{"args": [{"class_name": "__keras_tensor__", "config": {"shape": [null, 4, 4, 160], "dtype": "float16", "keras_history": ["activation_11", 0, 0]}}], "kwargs": {"training": false}}]}, {"class_name": "Conv2D", "config": {"name": "conv2d_15", "trainable": true, "dtype": {"module": "keras", "class_name": "DTypePolicy", "config": {"name": "mixed_float16"}, "registered_name": null}, "filters": 192, "kernel_size": [3, 3], "strides": [1, 1], "padding": "same", "data_format": "channels_last", "dilation_rate": [1, 1], "groups": 1, "activation": "linear", "use_bias": false, "kernel_initializer": {"module": "keras.initializers", "class_name": "GlorotUniform", "config": {"seed": null}, "registered_name": null}, "bias_initializer": {"module": "keras.initializers", "class_name": "Zeros", "config": {}, "registered_name": null}, "kernel_regularizer": null, "bias_regularizer": null, "activity_regularizer": null, "kernel_constraint": null, "bias_constraint": null}, "name": "conv2d_15", "inbound_nodes": [{"args": [{"class_name": "__keras_tensor__", "config": {"shape": [null, 4, 4, 160], "dtype": "float32", "keras_history": ["spatial_dropout2d_2", 0, 0]}}], "kwargs": {}}]}, {"class_name": "BatchNormalization", "config": {"name": "batch_normalization_15", "trainable": true, "dtype": {"module": "keras", "class_name": "DTypePolicy", "config": {"name": "mixed_float16"}, "registered_name": null}, "axis": -1, "momentum": 0.99, "epsilon": 0.001, "center": true, "scale": true, "beta_initializer": {"module": "keras.initializers", "class_name": "Zeros", "config": {}, "registered_name": null}, "gamma_initializer": {"module": "keras.initializers", "class_name": "Ones", "config": {}, "registered_name": null}, "moving_mean_initializer": {"module": "keras.initializers", "class_name": "Zeros", "config": {}, "registered_name": null}, "moving_variance_initializer": {"module": "keras.initializers", "class_name": "Ones", "config": {}, "registered_name": null}, "beta_regularizer": null, "gamma_regularizer": null, "beta_constraint": null, "gamma_constraint": null, "synchronized": false}, "name": "batch_normalization_15", "inbound_nodes": [{"args": [{"class_name": "__keras_tensor__", "config": {"shape": [null, 4, 4, 192], "dtype": "float16", "keras_history": ["conv2d_15", 0, 0]}}], "kwargs": {"mask": null}}]}, {"class_name": "Activation", "config": {"name": "activation_12", "trainable": true, "dtype": {"module": "keras", "class_name": "DTypePolicy", "config": {"name": "mixed_float16"}, "registered_name": null}, "activation": "relu"}, "name": "activation_12", "inbound_nodes": [{"args": [{"class_name": "__keras_tensor__", "config": {"shape": [null, 4, 4, 192], "dtype": "float16", "keras_history": ["batch_normalization_15", 0, 0]}}], "kwargs": {}}]}, {"class_name": "Conv2D", "config": {"name": "conv2d_16", "trainable": true, "dtype": {"module": "keras", "class_name": "DTypePolicy", "config": {"name": "mixed_float16"}, "registered_name": null}, "filters": 192, "kernel_size": [3, 3], "strides": [1, 1], "padding": "same", "data_format": "channels_last", "dilation_rate": [1, 1], "groups": 1, "activation": "linear", "use_bias": false, "kernel_initializer": {"module": "keras.initializers", "class_name": "GlorotUniform", "config": {"seed": null}, "registered_name": null}, "bias_initializer": {"module": "keras.initializers", "class_name": "Zeros", "config": {}, "registered_name": null}, "kernel_regularizer": null, "bias_regularizer": null, "activity_regularizer": null, "kernel_constraint": null, "bias_constraint": null}, "name": "conv2d_16", "inbound_nodes": [{"args": [{"class_name": "__keras_tensor__", "config": {"shape": [null, 4, 4, 192], "dtype": "float16", "keras_history": ["activation_12", 0, 0]}}], "kwargs": {}}]}, {"class_name": "Conv2D", "config": {"name": "conv2d_17", "trainable": true, "dtype": {"module": "keras", "class_name": "DTypePolicy", "config": {"name": "mixed_float16"}, "registered_name": null}, "filters": 192, "kernel_size": [1, 1], "strides": [1, 1], "padding": "same", "data_format": "channels_last", "dilation_rate": [1, 1], "groups": 1, "activation": "linear", "use_bias": false, "kernel_initializer": {"module": "keras.initializers", "class_name": "GlorotUniform", "config": {"seed": null}, "registered_name": null}, "bias_initializer": {"module": "keras.initializers", "class_name": "Zeros", "config": {}, "registered_name": null}, "kernel_regularizer": null, "bias_regularizer": null, "activity_regularizer": null, "kernel_constraint": null, "bias_constraint": null}, "name": "conv2d_17", "inbound_nodes": [{"args": [{"class_name": "__keras_tensor__", "config": {"shape": [null, 4, 4, 160], "dtype": "float32", "keras_history": ["spatial_dropout2d_2", 0, 0]}}], "kwargs": {}}]}, {"class_name": "BatchNormalization", "config": {"name": "batch_normalization_16", "trainable": true, "dtype": {"module": "keras", "class_name": "DTypePolicy", "config": {"name": "mixed_float16"}, "registered_name": null}, "axis": -1, "momentum": 0.99, "epsilon": 0.001, "center": true, "scale": true, "beta_initializer": {"module": "keras.initializers", "class_name": "Zeros", "config": {}, "registered_name": null}, "gamma_initializer": {"module": "keras.initializers", "class_name": "Ones", "config": {}, "registered_name": null}, "moving_mean_initializer": {"module": "keras.initializers", "class_name": "Zeros", "config": {}, "registered_name": null}, "moving_variance_initializer": {"module": "keras.initializers", "class_name": "Ones", "config": {}, "registered_name": null}, "beta_regularizer": null, "gamma_regularizer": null, "beta_constraint": null, "gamma_constraint": null, "synchronized": false}, "name": "batch_normalization_16", "inbound_nodes": [{"args": [{"class_name": "__keras_tensor__", "config": {"shape": [null, 4, 4, 192], "dtype": "float16", "keras_history": ["conv2d_16", 0, 0]}}], "kwargs": {"mask": null}}]}, {"class_name": "BatchNormalization", "config": {"name": "batch_normalization_17", "trainable": true, "dtype": {"module": "keras", "class_name": "DTypePolicy", "config": {"name": "mixed_float16"}, "registered_name": null}, "axis": -1, "momentum": 0.99, "epsilon": 0.001, "center": true, "scale": true, "beta_initializer": {"module": "keras.initializers", "class_name": "Zeros", "config": {}, "registered_name": null}, "gamma_initializer": {"module": "keras.initializers", "class_name": "Ones", "config": {}, "registered_name": null}, "moving_mean_initializer": {"module": "keras.initializers", "class_name": "Zeros", "config": {}, "registered_name": null}, "moving_variance_initializer": {"module": "keras.initializers", "class_name": "Ones", "config": {}, "registered_name": null}, "beta_regularizer": null, "gamma_regularizer": null, "beta_constraint": null, "gamma_constraint": null, "synchronized": false}, "name": "batch_normalization_17", "inbound_nodes": [{"args": [{"class_name": "__keras_tensor__", "config": {"shape": [null, 4, 4, 192], "dtype": "float16", "keras_history": ["conv2d_17", 0, 0]}}], "kwargs": {"mask": null}}]}, {"class_name": "Add", "config": {"name": "add_5", "trainable": true, "dtype": {"module": "keras", "class_name": "DTypePolicy", "config": {"name": "mixed_float16"}, "registered_name": null}}, "name": "add_5", "inbound_nodes": [{"args": [[{"class_name": "__keras_tensor__", "config": {"shape": [null, 4, 4, 192], "dtype": "float16", "keras_history": ["batch_normalization_16", 0, 0]}}, {"class_name": "__keras_tensor__", "config": {"shape": [null, 4, 4, 192], "dtype": "float16", "keras_history": ["batch_normalization_17", 0, 0]}}]], "kwargs": {}}]}, {"class_name": "Activation", "config": {"name": "activation_13", "trainable": true, "dtype": {"module": "keras", "class_name": "DTypePolicy", "config": {"name": "mixed_float16"}, "registered_name": null}, "activation": "relu"}, "name": "activation_13", "inbound_nodes": [{"args": [{"class_name": "__keras_tensor__", "config": {"shape": [null, 4, 4, 192], "dtype": "float16", "keras_history": ["add_5", 0, 0]}}], "kwargs": {}}]}, {"class_name": "SpatialDropout2D", "config": {"rate": 0.15, "seed": null, "name": "spatial_dropout2d_3", "dtype": "float32", "data_format": "channels_last"}, "name": "spatial_dropout2d_3", "inbound_nodes": [{"args": [{"class_name": "__keras_tensor__", "config": {"shape": [null, 4, 4, 192], "dtype": "float16", "keras_history": ["activation_13", 0, 0]}}], "kwargs": {"training": false}}]}, {"class_name": "GlobalAveragePooling2D", "config": {"name": "global_average_pooling2d", "trainable": true, "dtype": {"module": "keras", "class_name": "DTypePolicy", "config": {"name": "mixed_float16"}, "registered_name": null}, "data_format": "channels_last", "keepdims": false}, "name": "global_average_pooling2d", "inbound_nodes": [{"args": [{"class_name": "__keras_tensor__", "config": {"shape": [null, 4, 4, 192], "dtype": "float32", "keras_history": ["spatial_dropout2d_3", 0, 0]}}], "kwargs": {}}]}, {"class_name": "Dense", "config": {"name": "dense", "trainable": true, "dtype": {"module": "keras", "class_name": "DTypePolicy", "config": {"name": "mixed_float16"}, "registered_name": null}, "units": 384, "activation": "relu", "use_bias": true, "kernel_initializer": {"module": "keras.initializers", "class_name": "GlorotUniform", "config": {"seed": null}, "registered_name": null}, "bias_initializer": {"module": "keras.initializers", "class_name": "Zeros", "config": {}, "registered_name": null}, "kernel_regularizer": null, "bias_regularizer": null, "kernel_constraint": null, "bias_constraint": null}, "name": "dense", "inbound_nodes": [{"args": [{"class_name": "__keras_tensor__", "config": {"shape": [null, 192], "dtype": "float16", "keras_history": ["global_average_pooling2d", 0, 0]}}], "kwargs": {}}]}, {"class_name": "Dropout", "config": {"name": "dropout", "trainable": true, "dtype": {"module": "keras", "class_name": "DTypePolicy", "config": {"name": "mixed_float16"}, "registered_name": null}, "rate": 0.5, "seed": null, "noise_shape": null}, "name": "dropout", "inbound_nodes": [{"args": [{"class_name": "__keras_tensor__", "config": {"shape": [null, 384], "dtype": "float16", "keras_history": ["dense", 0, 0]}}], "kwargs": {"training": false}}]}, {"class_name": "Dense", "config": {"name": "dense_1", "trainable": true, "dtype": {"module": "keras", "class_name": "DTypePolicy", "config": {"name": "float32"}, "registered_name": null}, "units": 26, "activation": "softmax", "use_bias": true, "kernel_initializer": {"module": "keras.initializers", "class_name": "GlorotUniform", "config": {"seed": null}, "registered_name": null}, "bias_initializer": {"module": "keras.initializers", "class_name": "Zeros", "config": {}, "registered_name": null}, "kernel_regularizer": null, "bias_regularizer": null, "kernel_constraint": null, "bias_constraint": null}, "name": "dense_1", "inbound_nodes": [{"args": [{"class_name": "__keras_tensor__", "config": {"shape": [null, 384], "dtype": "float16", "keras_history": ["dropout", 0, 0]}}], "kwargs": {}}]}], "input_layers": ["input_layer", 0, 0], "output_layers": ["dense_1", 0, 0]}}}, "weightsManifest": [{"paths": ["group1-shard1of2.bin", "group1-shard2of2.bin"], "weights": [{"name": "batch_normalization/gamma", "shape": [64], "dtype": "float32"}, {"name": "batch_normalization/beta", "shape": [64], "dtype": "float32"}, {"name": "batch_normalization/moving_mean", "shape": [64], "dtype": "float32"}, {"name": "batch_normalization/moving_variance", "shape": [64], "dtype": "float32"}, {"name": "batch_normalization_1/gamma", "shape": [64], "dtype": "float32"}, {"name": "batch_normalization_1/beta", "shape": [64], "dtype": "float32"}, {"name": "batch_normalization_1/moving_mean", "shape": [64], "dtype": "float32"}, {"name": "batch_normalization_1/moving_variance", "shape": [64], "dtype": "float32"}, {"name": "batch_normalization_10/gamma", "shape": [128], "dtype": "float32"}, {"name": "batch_normalization_10/beta", "shape": [128], "dtype": "float32"}, {"name": "batch_normalization_10/moving_mean", "shape": [128], "dtype": "float32"}, {"name": "batch_normalization_10/moving_variance", "shape": [128], "dtype": "float32"}, {"name": "batch_normalization_11/gamma", "shape": [128], "dtype": "float32"}, {"name": "batch_normalization_11/beta", "shape": [128], "dtype": "float32"}, {"name": "batch_normalization_11/moving_mean", "shape": [128], "dtype": "float32"}, {"name": "batch_normalization_11/moving_variance", "shape": [128], "dtype": "float32"}, {"name": "batch_normalization_12/gamma", "shape": [160], "dtype": "float32"}, {"name": "batch_normalization_12/beta", "shape": [160], "dtype": "float32"}, {"name": "batch_normalization_12/moving_mean", "shape": [160], "dtype": "float32"}, {"name": "batch_normalization_12/moving_variance", "shape": [160], "dtype": "float32"}, {"name": "batch_normalization_13/gamma", "shape": [160], "dtype": "float32"}, {"name": "batch_normalization_13/beta", "shape": [160], "dtype": "float32"}, {"name": "batch_normalization_13/moving_mean", "shape": [160], "dtype": "float32"}, {"name": "batch_normalization_13/moving_variance", "shape": [160], "dtype": "float32"}, {"name": "batch_normalization_14/gamma", "shape": [160], "dtype": "float32"}, {"name": "batch_normalization_14/beta", "shape": [160], "dtype": "float32"}, {"name": "batch_normalization_14/moving_mean", "shape": [160], "dtype": "float32"}, {"name": "batch_normalization_14/moving_variance", "shape": [160], "dtype": "float32"}, {"name": "batch_normalization_15/gamma", "shape": [192], "dtype": "float32"}, {"name": "batch_normalization_15/beta", "shape": [192], "dtype": "float32"}, {"name": "batch_normalization_15/moving_mean", "shape": [192], "dtype": "float32"}, {"name": "batch_normalization_15/moving_variance", "shape": [192], "dtype": "float32"}, {"name": "batch_normalization_16/gamma", "shape": [192], "dtype": "float32"}, {"name": "batch_normalization_16/beta", "shape": [192], "dtype": "float32"}, {"name": "batch_normalization_16/moving_mean", "shape": [192], "dtype": "float32"}, {"name": "batch_normalization_16/moving_variance", "shape": [192], "dtype": "float32"}, {"name": "batch_normalization_17/gamma", "shape": [192], "dtype": "float32"}, {"name": "batch_normalization_17/beta", "shape": [192], "dtype": "float32"}, {"name": "batch_normalization_17/moving_mean", "shape": [192], "dtype": "float32"}, {"name": "batch_normalization_17/moving_variance", "shape": [192], "dtype": "float32"}, {"name": "batch_normalization_2/gamma", "shape": [96], "dtype": "float32"}, {"name": "batch_normalization_2/beta", "shape": [96], "dtype": "float32"}, {"name": "batch_normalization_2/moving_mean", "shape": [96], "dtype": "float32"}, {"name": "batch_normalization_2/moving_variance", "shape": [96], "dtype": "float32"}, {"name": "batch_normalization_3/gamma", "shape": [96], "dtype": "float32"}, {"name": "batch_normalization_3/beta", "shape": [96], "dtype": "float32"}, {"name": "batch_normalization_3/moving_mean", "shape": [96], "dtype": "float32"}, {"name": "batch_normalization_3/moving_variance", "shape": [96], "dtype": "float32"}, {"name": "batch_normalization_4/gamma", "shape": [96], "dtype": "float32"}, {"name": "batch_normalization_4/beta", "shape": [96], "dtype": "float32"}, {"name": "batch_normalization_4/moving_mean", "shape": [96], "dtype": "float32"}, {"name": "batch_normalization_4/moving_variance", "shape": [96], "dtype": "float32"}, {"name": "batch_normalization_5/gamma", "shape": [96], "dtype": "float32"}, {"name": "batch_normalization_5/beta", "shape": [96], "dtype": "float32"}, {"name": "batch_normalization_5/moving_mean", "shape": [96], "dtype": "float32"}, {"name": "batch_normalization_5/moving_variance", "shape": [96], "dtype": "float32"}, {"name": "batch_normalization_6/gamma", "shape": [96], "dtype": "float32"}, {"name": "batch_normalization_6/beta", "shape": [96], "dtype": "float32"}, {"name": "batch_normalization_6/moving_mean", "shape": [96], "dtype": "float32"}, {"name": "batch_normalization_6/moving_variance", "shape": [96], "dtype": "float32"}, {"name": "batch_normalization_7/gamma", "shape": [128], "dtype": "float32"}, {"name": "batch_normalization_7/beta", "shape": [128], "dtype": "float32"}, {"name": "batch_normalization_7/moving_mean", "shape": [128], "dtype": "float32"}, {"name": "batch_normalization_7/moving_variance", "shape": [128], "dtype": "float32"}, {"name": "batch_normalization_8/gamma", "shape": [128], "dtype": "float32"}, {"name": "batch_normalization_8/beta", "shape": [128], "dtype": "float32"}, {"name": "batch_normalization_8/moving_mean", "shape": [128], "dtype": "float32"}, {"name": "batch_normalization_8/moving_variance", "shape": [128], "dtype": "float32"}, {"name": "batch_normalization_9/gamma", "shape": [128], "dtype": "float32"}, {"name": "batch_normalization_9/beta", "shape": [128], "dtype": "float32"}, {"name": "batch_normalization_9/moving_mean", "shape": [128], "dtype": "float32"}, {"name": "batch_normalization_9/moving_variance", "shape": [128], "dtype": "float32"}, {"name": "conv2d/kernel", "shape": [3, 3, 1, 64], "dtype": "float32"}, {"name": "conv2d_1/kernel", "shape": [3, 3, 64, 64], "dtype": "float32"}, {"name": "conv2d_10/kernel", "shape": [3, 3, 128, 128], "dtype": "float32"}, {"name": "conv2d_11/kernel", "shape": [3, 3, 128, 128], "dtype": "float32"}, {"name": "conv2d_12/kernel", "shape": [3, 3, 128, 160], "dtype": "float32"}, {"name": "conv2d_13/kernel", "shape": [3, 3, 160, 160], "dtype": "float32"}, {"name": "conv2d_14/kernel", "shape": [1, 1, 128, 160], "dtype": "float32"}, {"name": "conv2d_15/kernel", "shape": [3, 3, 160, 192], "dtype": "float32"}, {"name": "conv2d_16/kernel", "shape": [3, 3, 192, 192], "dtype": "float32"}, {"name": "conv2d_17/kernel", "shape": [1, 1, 160, 192], "dtype": "float32"}, {"name": "conv2d_2/kernel", "shape": [3, 3, 64, 96], "dtype": "float32"}, {"name": "conv2d_3/kernel", "shape": [3, 3, 96, 96], "dtype": "float32"}, {"name": "conv2d_4/kernel", "shape": [1, 1, 64, 96], "dtype": "float32"}, {"name": "conv2d_5/kernel", "shape": [3, 3, 96, 96], "dtype": "float32"}, {"name": "conv2d_6/kernel", "shape": [3, 3, 96, 96], "dtype": "float32"}, {"name": "conv2d_7/kernel", "shape": [3, 3, 96, 128], "dtype": "float32"}, {"name": "conv2d_8/kernel", "shape": [3, 3, 128, 128], "dtype": "float32"}, {"name": "conv2d_9/kernel", "shape": [1, 1, 96, 128], "dtype": "float32"}, {"name": "dense/kernel", "shape": [192, 384], "dtype": "float32"}, {"name": "dense/bias", "shape": [384], "dtype": "float32"}, {"name": "dense_1/kernel", "shape": [384, 26], "dtype": "float32"}, {"name": "dense_1/bias", "shape": [26], "dtype": "float32"}]}]}